SpeechRecognitionModel(
  (cnn): Conv2d(1, 32, kernel_size=(3, 3), stride=(2, 2), padding=(1, 1))
  (cnn_layers): Sequential(
    (0): Conv2d(32, 32, kernel_size=(3, 3), stride=(1, 1), padding=(1, 1))
    (1): Conv2d(32, 32, kernel_size=(3, 3), stride=(1, 1), padding=(1, 1))
    (2): Conv2d(32, 32, kernel_size=(3, 3), stride=(1, 1), padding=(1, 1))
    (3): Conv2d(32, 32, kernel_size=(3, 3), stride=(1, 1), padding=(1, 1))
    (4): Conv2d(32, 32, kernel_size=(3, 3), stride=(1, 1), padding=(1, 1))
    (5): Conv2d(32, 32, kernel_size=(3, 3), stride=(1, 1), padding=(1, 1))
  )
  (fully_connected): Linear(in_features=2048, out_features=512, bias=True)
  (birnn_layers): Sequential(
    (0): BidirectionalLSTM(
      (BiLSTM): LSTM(512, 512, batch_first=True, bidirectional=True)
      (layer_norm): LayerNorm((512,), eps=1e-05, elementwise_affine=True)
      (dropout): Dropout(p=0.1, inplace=False)
    )
    (1): BidirectionalLSTM(
      (BiLSTM): LSTM(1024, 512, bidirectional=True)
      (layer_norm): LayerNorm((1024,), eps=1e-05, elementwise_affine=True)
      (dropout): Dropout(p=0.1, inplace=False)
    )
    (2): BidirectionalLSTM(
      (BiLSTM): LSTM(1024, 512, bidirectional=True)
      (layer_norm): LayerNorm((1024,), eps=1e-05, elementwise_affine=True)
      (dropout): Dropout(p=0.1, inplace=False)
    )
    (3): BidirectionalLSTM(
      (BiLSTM): LSTM(1024, 512, bidirectional=True)
      (layer_norm): LayerNorm((1024,), eps=1e-05, elementwise_affine=True)
      (dropout): Dropout(p=0.1, inplace=False)
    )
    (4): BidirectionalLSTM(
      (BiLSTM): LSTM(1024, 512, bidirectional=True)
      (layer_norm): LayerNorm((1024,), eps=1e-05, elementwise_affine=True)
      (dropout): Dropout(p=0.1, inplace=False)
    )
  )
  (classifier): Sequential(
    (0): Linear(in_features=1024, out_features=512, bias=True)
    (1): GELU(approximate='none')
    (2): Dropout(p=0.1, inplace=False)
    (3): Linear(in_features=512, out_features=29, bias=True)
  )
  (attention): MultiHeadAttention(
    (q_linear): Linear(in_features=1024, out_features=1024, bias=True)
    (v_linear): Linear(in_features=1024, out_features=1024, bias=True)
    (k_linear): Linear(in_features=1024, out_features=1024, bias=True)
    (dropout): Dropout(p=0.1, inplace=False)
    (out_linear): Linear(in_features=1024, out_features=1024, bias=True)
  )
)
Num Model Parameters 35253277
Train Epoch: 1 [0/1000 (0%)]	Loss: 11.008758
Train Epoch: 1 [100/1000 (10%)]	Loss: 9.739862
Train Epoch: 1 [200/1000 (20%)]	Loss: 4.122386
Train Epoch: 1 [300/1000 (30%)]	Loss: 3.983225
Train Epoch: 1 [400/1000 (40%)]	Loss: 3.141790
Train Epoch: 1 [500/1000 (50%)]	Loss: 3.097229
Train Epoch: 1 [600/1000 (60%)]	Loss: 3.147390
…
